model/hw1/best_model.pt (torch, 8367 bytes, 5 tensors)

layers.0.weight f4 [16, 85]
00000000: 4047 3b3d 9263 6e3e 043a 6abe 9cd2 d8bd
00000010: 7b0a 6bbe df8b f93c 2ced f4bd 0485 163e
00000020: e7ec 153e b6e2 fcbc fafe e73d 8269 013d
00000030: f0e1 bf3d fa45 a43b 7959 7a3d 35b9 7cbc
00000040: 8946 b33d 7ae3 9e3c 7b82 04bd 1d44 983c
00000050: dfdb 84bd 2db0 80bc 9504 3fbd 40ec cf3d
00000060: 0f13 6dbd 1945 09bd 9ff8 b0bc 9abb 49bd
00000070: 39c4 cd3a fabe cbbd 982b c93d c78a b3bd
00000080: bad2 b43d 077e 133d 5383 43bd efd0 503d
00000090: d846 6e3c 4ac3 ae3d 7c07 643e ab1b c2bc
000000a0: 7e5d 1e3d a9c8 71bc b366 5a3d 0a06 ee3d
000000b0: e163 5c3d 1d3a 20bd 7b2d 813d 414c ca3c
000000c0: 008e 753d ac18 4abd 4fc6 fbbd 27a7 71bd
000000d0: 59d6 abbd 5add ad3d 8084 603e 50ff 3e3d
000000e0: e051 0b3d 4217 333c 3700 bd3d f9ce 61bd
000000f0: b1f5 d3b9 668c 84bd c771 0c3d 0ff9 f5bc
00000100: a869 223d 922f a3bb d578 933d 9dbc a5bd
00000110: 0e38 88bd 36ff 8dbd c1ab 863e 03bc 143d
00000120: 89c1 d13d ce16 a0bd 38ad cebd d73b 76bd
00000130: 8cf7 a0bd 095f 613d a52d 233d 8f5f cb3d
00000140: 849e 47bd c83a 65bd 9ffb 1d3d d763 6abd
00000150: 0426 833d 8933 61bd 35c3 493e 56c4 8dbe
00000160: 1347 7fbe 1fc4 26be 31fc 1d3d dd6c b8bd
00000170: 5f43 173e 0950 0d3e 99aa 85bc 8e9e cebc
00000180: 1f9f fe3d 05f7 11bc f7a8 68bc 4835 97bd
00000190: ec3d 1dbd fffa 633d a8de 6b3c b34b 19bd
000001a0: 9e64 c3bc 36f5 85bd 5d9b 90bd 1bdb 25bd
000001b0: 6682 4fbd ffbb d8bc 0217 0e3e 58c2 313d
000001c0: 32a6 823d 10d8 9bbd 22d3 28bd de88 45bc
000001d0: 152f 3c3d 1244 86bd 5c67 bbbb a0e4 c2bd
000001e0: 414f 013c 4d22 96bc bc26 433c ff40 0c3e
000001f0: 5261 46bd e6e5 1bbd 8495 0cbc 9a18 83bd
00000200: adde ff3d 61fd 4c3b 24cd fd3d 8764 6d3d
00000210: 09e5 7ebd da6e d73d 6ba4 233c 83fd 99bd
00000220: b80b abbd 8ead acbd dd71 473d 0c56 283e
00000230: a5db 743d 7ee6 95bd 5acf db3d 63a9 6ebd
00000240: 4e1b 933c edaf 473d 5f1f b33d d166 e53d
00000250: 616d 053e e6f8 5ebd d001 8b3d 25b7 a9bd
00000260: e3b1 a6bb 9120 71bd 065d ed3d ab68 b13d
00000270: 911e 973d fa89 553d 8e49 783d 74b7 1bbd
00000280: 0179 0d3e d012 523d e7d8 403d 218d 91bd
00000290: ba06 a13d d29c 833c ebca 10bc 50d0 643d
000002a0: 4060 0b3d 2bb9 1abd eea3 973b acec 0bbe
000002b0: 5b89 8c3e 77c4 3f3e 2c39 1d3e 2d50 c7bc
000002c0: f1ef 82bb eaad 11bd 4f22 8a3d 34b9 eebd
000002d0: 4d67 313d 4a45 a83d fe76 2f3d ee84 03bd
000002e0: ff5a 993d f726 973d 71ff 493d 7a40 e6bb
000002f0: 9f1d d4bc 1325 933d 50a2 f43c 912f 613a
00000300: d6c2 d03d b635 c93d 1ef8 80bb ce45 81bb
00000310: 01e8 f23c e38b 793c 7b47 ff3c 3f2e 4c3d
00000320: 9943 a8bd 8df4 02bd d315 d13d 885e 393d
00000330: f92c 713d 26e2 7abc 2824 0abd 5d84 84bd
00000340: 132e 61be a56a 7a3d 829d c13d b898 933d
00000350: 8494 88bd a177 3cbd 2c79 42bc 218c fd3d
00000360: 6360 023d cec1 aabc d9a3 623d 08b0 17bd
00000370: c2b3 20bb 6938 053e 1a7e 94bc ad07 4d3c
00000380: aca8 89be 3b1e d93d 997e f03d 2049 813d
00000390: a16c 3ebd 1668 b7bd 6f6a adbd faa4 ca3d
000003a0: 86f8 8a3d 6194 c53d 85b1 863d 97b0 fc3c
000003b0: 4636 8e3d dd46 03bd 6e02 78bd 9232 88bd
000003c0: 3e11 bfbd 1552 94bc 93c4 783c baec 19bd
000003d0: b1da 203c eb78 79bd df84 8dbd 546c 563d
000003e0: 675d 87bc af26 903d 7899 dabc 63cf 9cbd
000003f0: 43d7 563d 4da1 b6bb 904d 40ba 2779 d3bd
0.045722246 0.2328017 -0.22873694 -0.105870456 -0.22953217 0.030462204 -0.119592994 0.14699179
0.14641152 -0.030869823 0.1132793 0.03159476 0.09369266 0.0050132247 0.061120484 -0.015425016
0.08753688 0.019395579 -0.032351 0.018587166 -0.064872496 -0.015709007 -0.04663523 0.10152483
-0.057879504 -0.033513162 -0.021602927 -0.049251176 0.0015698738 -0.09948535 0.09822768 -0.08766704
0.088292554 0.03600886 -0.047732662 0.050980505 0.014543258 0.08533342 0.2226848 -0.023694834
0.03866338 -0.014757314 0.053320598 0.116222456 0.05380619 -0.03911792 0.06307503 0.024694564
0.059949875 -0.049339935 -0.12293684 -0.0589973 -0.08390493 0.08489485 0.21925545 0.046630204
0.03401363 0.010930838 0.092285566 -0.055129025 -0.0004042811 -0.064720914 0.034288194 -0.030025987
0.039651543 -0.004980036 0.07200781 -0.08092616 -0.066513166 -0.06933443 0.26302913 0.036312114
0.10241992 -0.0781685 -0.100916326 -0.06011566 -0.07859716 0.055022273 0.039838452 0.09930336
-0.048735157 -0.05596426 0.038570043 -0.05722412 0.06403735 -0.05498079 0.19703372 -0.27688855
-0.24929456 -0.16285752 0.038570587 -0.09005139 0.14771794 0.13800062 -0.016316699 -0.02522209
0.12432694 -0.008908992 -0.014200441 -0.073832095 -0.03838913 0.05565929 0.014396347 -0.037425708
-0.023851689 -0.06540911 -0.07060883 -0.04049216 -0.050661467 -0.026456831 0.13875964 0.04339823
0.063793555 -0.0760957 -0.041216977 -0.012056557 0.04594334 -0.06555952 -0.0057191085 -0.09516263
0.007892431 -0.018326903 0.01191109 0.13696669 -0.048432656 -0.038061045 -0.008580569 -0.06401177
0.12493644 0.0031278955 0.12392643 0.0579572 -0.062230144 0.1051919 0.009987931 -0.07519057
-0.083518445 -0.084315404 0.048692573 0.16439074 0.05977978 -0.073193535 0.107329085 -0.05826701
0.017957356 0.04875176 0.08746218 0.11201251 0.13030006 -0.054436587 0.06787455 -0.08286885
-0.0050871237 -0.05886895 0.115900084 0.08662542 0.07378877 0.052133538 0.060617022 -0.03801675
0.1381569 0.051287472 0.047081854 -0.07106996 0.07862611 0.016065989 -0.008837442 0.055862725
0.034027338 -0.037774246 0.0046276962 -0.13664502 0.27448544 0.18727289 0.1535384 -0.024330223
-0.0039958884 -0.035566248 0.06744825 -0.116564184 0.043311406 0.08216341 0.04283809 -0.032109194
0.07488059 0.07380479 0.049315874 -0.007026729 -0.02589303 0.07184806 0.029862553 0.0008590157
0.10193412 0.09824698 -0.003935828 -0.003945089 0.029651644 0.0152311055 0.031162014 0.04984879
-0.08216018 -0.031971503 0.10209241 0.045256168 0.05888078 -0.015312707 -0.033725888 -0.06470559
-0.21990232 0.06113686 0.0945387 0.07206863 -0.06668952 -0.046012525 -0.01186971 0.12380243
0.031830203 -0.020844366 0.05533204 -0.03703311 -0.0024521207 0.130098 -0.018126536 0.012514037
-0.268865 0.10601469 0.117428966 0.063127756 -0.046490315 -0.089554 -0.08467566 0.09894748
0.06785683 0.09647442 0.06576828 0.030845923 0.069439456 -0.032050002 -0.060549192 -0.066502705
-0.093294606 -0.018105546 0.015183586 -0.037579276 0.009817765 -0.060906332 -0.06910109 0.052349404
-0.01652403 0.07038628 -0.026684508 -0.076567434 0.052451383 -0.005573428 -0.00073357765 -0.10325842

layers.0.bias f4 [16]
00000000: 7da6 7abd 370f 713d f848 bfbd 0c06 ea3c
00000010: 81eb 503d f368 a8bd 3321 96bd 2bb3 9fbd
00000020: 8091 973d d5d7 bc3d 0410 0c3c 6e04 093e
00000030: 6c02 2ebc 604b c1bd 1b23 763d e9f6 5c3d
-0.06119393 0.0588524 -0.093400896 0.028567336 0.051005844 -0.082231425 -0.07330551 -0.077978455
0.07400799 0.09220854 0.00854874 0.13380596 -0.010620695 -0.09438205 0.060092073 0.05394641

layers.2.weight f4 [8, 16]
00000000: 56fa 7a3e 00c0 97b8 8a32 443e 32eb 1c3e
00000010: ea48 393e 7a09 7ebe 24ce 523e 5a3a 5abe
00000020: c081 653e a0bd 29bc 20df 62be 2c62 8e3d
00000030: 906e 50bd 00f0 65be 9c9e b9bd d028 d33c
00000040: 7e62 473e 6c67 9dbd 480e 183e e83b 003d
00000050: 4011 0a3c f0ef 433d 3a01 28be 68c9 54be
00000060: 58e0 a0bd fc8d 6ebe 80c5 eebd a070 3c3c
00000070: 9e9a 28be 2460 d4bd b8ff 37bd c0ef ebbc
00000080: d450 0dbe 20d1 443c a8ba 0fbd 046e 923d
00000090: 8001 393c 64ad ffbd fc45 b0bd 80d6 3cbb
000000a0: 80bd 1fbe e053 a03c c099 90bc 20a5 c63d
000000b0: 8058 723d 1096 3f3e c006 07bc e428 3dbe
000000c0: 5cde e43d b603 2dbe 50c0 0cbd 78c9 a5bd
000000d0: 8c46 c2bd 886e bdbd 603e 6b3e 888c 123e
000000e0: f4e4 8d3d 765f 703e 2afe 67be 883d 253d
000000f0: 9ae2 233e e80e 2a3e 12bd 4bbe 2837 b63d
00000100: f0d6 11be e00b 20bc a8ad 55bd 3cc0 55be
00000110: bc33 74be 006c 28be 9c54 e83d fc34 ea3d
00000120: d6a8 5ebe 1447 c0bd c0cf 853b 4855 5dbe
00000130: 8e3e 103e 14de 673e 401b 353d 3836 3ebe
00000140: 7df8 0a3e 5d95 1a3e 27d7 df3d bc35 08be
00000150: 38aa 63be 0366 113e 6e96 123e b8d2 a6bd
00000160: 6821 50be 66ff 03be 6056 233e 5f0e 12be
00000170: 0cd6 653e b6bb a73e 6a17 f23d 1fad d53d
00000180: 6658 9a3d 4146 6b3e 3d9f a2be 1c9d cb3d
00000190: ce93 1cbd e4b1 223e 5452 083e 8493 bdbd
000001a0: 4ebf 17be f83c 0a3e 3a42 5abe 163e 87be
000001b0: abc2 89ba ae2c 843c c2fb 403e 4f93 713e
000001c0: 8e33 b2bd 5f67 533e 7908 c73c 24a8 0fbe
000001d0: ab68 ebbd 2af3 30be d307 9cbe 9819 64be
000001e0: 5df9 c8bd 9ca1 853d 4622 6a3e eedd af3e
000001f0: 065a 3a3e 6fbe f4bd 9225 01bd 4c19 3fbe
0.24509558 -7.236004e-05 0.19159904 0.15324095 0.18094221 -0.24808303 0.20586449 -0.21311322
0.22412777 -0.0103601515 -0.22155428 0.069523185 -0.05088669 -0.22454834 -0.090634555 0.025776297
0.19471166 -0.07685742 0.14849198 0.03130713 0.008426964 0.047836244 -0.16406718 -0.20779955
-0.0785529 -0.2329635 -0.11658764 0.011501461 -0.16465232 -0.103699 -0.044921607 -0.028800845
-0.13800365 0.01201275 -0.03509012 0.0714989 0.0112918615 -0.124842435 -0.086070985 -0.0028814375
-0.15599632 0.019571245 -0.017651439 0.09699464 0.05916643 0.18709588 -0.008241355 -0.1847263
0.11175224 -0.16895947 -0.03436309 -0.08095068 -0.09486112 -0.09249598 0.22973013 0.14311421
0.06928435 0.23473915 -0.2265555 0.040341884 0.1600441 0.16607249 -0.19896343 0.08897239
-0.14242148 -0.009768456 -0.052167565 -0.20874113 -0.2384786 -0.16447449 0.11344263 0.11435887
-0.21744093 -0.09388557 0.0040836036 -0.21614563 0.14086363 0.2264331 0.04421544 -0.1857537
0.13571353 0.1509604 0.10929709 -0.13301748 -0.22232902 0.1419907 0.14315197 -0.0814566
-0.20325243 -0.12890396 0.15950918 -0.14263295 0.22444934 0.327604 0.11820872 0.10433411
0.07536392 0.22976018 -0.31762114 0.099420756 -0.038226895 0.15888172 0.13312656 -0.09256652
-0.1481907 0.1349982 -0.21314326 -0.26414555 -0.0010510286 0.016134586 0.18846038 0.2359135
-0.087012395 0.20644902 0.024296032 -0.14028984 -0.11494573 -0.1728026 -0.3047472 -0.22275388
-0.09813187 0.06524965 0.22864637 0.34349006 0.18198404 -0.11950385 -0.03152997 -0.18661994

layers.2.bias f4 [8]
00000000: 18e6 c53d 9c76 75be 1c7f f13d 48d1 3b3d
00000010: fc56 9d3d c932 d73d dbbc bcbd c811 6e3e
0.096630275 -0.23971027 0.11791822 0.045853883 0.076826066 0.105077334 -0.09215709 0.2324897

layers.4.weight f4 [1, 8]
00000000: aac8 2c3e 3ed2 6d3e 2845 3f3d fe5a 633e
00000010: 02a7 733e b7c7 563e 0e6b da3e 977c 37be
0.16873422 0.23224732 0.046696812 0.2220268 0.23794177 0.20974623 0.426598 -0.17918621
